bc-classification.onnx (onnx, 21117 bytes, 4 tensors)

start2 f4 [64, 30]
00000000: 49f4 583e 27b6 98bd a09e cb3d 59ea 563d
00000010: 20f8 d0bd 9d4b 7b3d 27c1 153e 24bf 143e
00000020: 3d83 053e b277 b43d e74d e43d 89bb 1bbe
00000030: 4c04 c5bd fa7e 8a3c 8e49 133e 9ede 8a3d
00000040: dc4b 07be ff6f 3a3d baf2 ad3c 3cd9 f93d
00000050: 975c 0e3e 341f f2bd ba1e 1f3e eacb 3ebd
00000060: eb0c 363e de7d 73bd b359 873d 8194 713e
00000070: 9b41 ec3c 59a1 c93d 79da 443e ed45 bcbd
00000080: 794a f7bd b9e5 963d 116c 90bd 3541 52bd
00000090: ab8a 943d 1710 b13d 079a 98bd c458 0ebe
000000a0: c154 db3c bb09 a5bd 4818 243e 17df e93d
000000b0: 0f63 cabb ad92 8e3d d769 aebd 4f8e 0f3e
000000c0: 94c8 f8bd c237 c63c a8ff 3f3d 4ebd 433d
000000d0: e6d2 523e ebee 653d f2bc c53d 1bae 00be
000000e0: ae7f 81bc c432 483c 0a0e 22be e945 af3c
000000f0: 6c4c 80bd 8109 ae3c 4b5f e5bc c27c 48be
00000100: e7ae bbbd 86c4 453d 3a08 25bd c8b8 34bd
00000110: 49a8 3cbe d4ce eb3d 6603 2dbe 965c 423e
00000120: 2367 c53d 0bb4 5cbe be1a 123d d11b aabc
00000130: 8e83 1e3e 72d3 17bc 130e 5abd 703a fe3d
00000140: 4532 49be d17a 0b3c a5fb 09be f905 c0bd
00000150: 99f6 b9bc 2139 233d e6d6 0cbd b6fb 3bbe
00000160: f0f3 81bd dd8c 5e3c dea3 0e3e b14e 983c
00000170: 2eeb 613d c997 f53d 4083 8bbd 4056 c93d
00000180: 6bb5 84bd a737 c6bd c066 3dbb d5b6 73bc
00000190: d9cd edbd a763 b8bd ec93 0fbe 6a1b f1bd
000001a0: 0f16 6f3c 5b53 e6bd 2220 03be 945c 493d
000001b0: 6f28 04be 3106 ae3d d9fe e4bd 1cbb 173e
000001c0: 8dc1 2abd d7bd 3d3d 05d9 cabd 13fe cabd
000001d0: 9ece 1dbe 629c e5bc 6557 2f3d 3319 d53d
000001e0: 5c15 7bbd b406 493e 6f35 cd3c 6103 e6bd
000001f0: b592 1bbe c21a 06bd 01f4 04bd 5242 ee3d
00000200: 0fd7 11be 8cac 38bd db84 01be 89aa 8ebd
00000210: 47f0 0ebe 1c30 d43d 90e7 b2bd a0b7 f43d
00000220: 30b9 683d 0c71 2a3e 67bd 7b3d 526b 2a3d
00000230: d7a2 cd3b 71f2 523d 4792 ac3d 0e05 cbbd
00000240: 2ad4 353e d0ed c6bd d06b b4bd 4f37 c83c
00000250: 012c a3bd 2853 00be 948c 523d 582a 303d
00000260: 5120 12bd 21c9 5b3e 9e7e 89bb 58ae 0fbd
00000270: febf ad3d a1f8 2e3d e40a 133e df65 5ebe
00000280: 1b1e 3bbd d702 1e3d 18e6 bb3d fa69 1a3e
00000290: 4bb9 20bd e6c8 0a3e 950f 7f3d 9b7c 2f3e
000002a0: 974f a4bd 2692 b33d 75cb 6e3d c52d f83d
000002b0: 4afe a83d 8e14 eabd 3402 78bc eb2a bebd
000002c0: 9148 873c 314a d23b d4c0 84bb 3bdc 48be
000002d0: a34a 143d 6710 ffbd 6a00 283e f18d cebc
000002e0: 91fb 0abe 2f33 09be 223d eabd ac70 bfbd
000002f0: a648 023d 9b24 9b3c b85e 103e 5d0c 393e
00000300: 2ae0 fe3d ecff 72bc 0254 1fbe 3b44 4abc
00000310: aff2 ff3d 69a3 59bd 5a1d 0abe 57db f8bc
00000320: e638 b8bc 77a1 733d 1cbd 26bc 5621 2e3e
00000330: 91a0 b2bd b380 193e 4492 16be e687 1bbd
00000340: c622 1cbe 451c 72bc 1614 b6bd f053 12be
00000350: fd31 0b3e 3ac2 abbb cd6e 65bd da21 013e
00000360: d03b 123e edd6 5bbb 32b2 2b3e 116b 963c
00000370: a3d1 9c3d 408d 42be 272a eebc 5831 443e
00000380: 1db9 0ebd 17f7 1bbd 948a 01be 6cf1 203d
00000390: 077a ad3d 9e50 833d a61a 08bb 2416 523e
000003a0: 865e d43d 6c42 593e 61e5 1ebd f0b6 8abd
000003b0: ff92 f7bd 9961 253e e713 e33d b375 e53d
000003c0: 9c35 11be 7326 adbc cfb3 17be d770 323e
000003d0: b1da 3e3e 9d64 493e 04dd 053e 2c26 c2bd
000003e0: 610f 19be 4c13 fd3d a2fb fb3d 283e 333b
000003f0: d925 d1bd de81 00be 7542 90bd 3631 96bd
0.21186937 -0.07456618 0.09942365 0.052469585 -0.10203576 0.061351407 0.14624463 0.1452604
0.13038345 0.088118926 0.11147671 -0.15208258 -0.0961996 0.01690625 0.14383528 0.06780742
-0.13212532 0.045516964 0.021233905 0.12199637 0.13902508 -0.11822358 0.15539065 -0.046581186
0.17778365 -0.05944621 0.06608906 0.23591806 0.028839877 0.09845228 0.19223966 -0.09193025
-0.120747514 0.07368035 -0.07051862 -0.051331718 0.07253011 0.08645647 -0.074512534 -0.13901049
0.026773812 -0.080584966 0.16024888 0.11419504 -0.0061763595 0.0696157 -0.08516281 0.1401913
-0.12147632 0.02419651 0.046874672 0.047787957 0.20588264 0.056136053 0.09655179 -0.12566416
-0.015807953 0.012219135 -0.15825668 0.02139564 -0.06264576 0.021244766 -0.02799954 -0.19578841
-0.09164219 0.048283122 -0.04029105 -0.044121534 -0.1842357 0.11514059 -0.16895828 0.18980631
0.096388124 -0.21553056 0.035670035 -0.020765217 0.15479872 -0.009266721 -0.05323608 0.1241349
-0.19648083 0.008513168 -0.13474901 -0.09376139 -0.022700595 0.039849404 -0.03438463 -0.18357739
-0.063453555 0.013583389 0.13929698 0.01859221 0.055155925 0.11991841 -0.06812143 0.09830904
-0.06479915 -0.096785836 -0.0028900355 -0.0148751335 -0.11611528 -0.09003382 -0.14021271 -0.11772807
0.0145926615 -0.112463675 -0.12805226 0.049160555 -0.12906049 0.08497275 -0.11181421 0.1481747
-0.04168849 0.046323624 -0.099046744 -0.09911742 -0.1541085 -0.02802867 0.042807955 0.10405197
-0.061299667 0.19631463 0.025049893 -0.11231113 -0.15192683 -0.032740362 -0.032459263 0.11633743
-0.14242195 -0.04508643 -0.12648337 -0.06966121 -0.13958846 0.10360739 -0.08735573 0.11949086
0.056817234 0.16644686 0.061459925 0.041606255 0.0062755155 0.05150074 0.08426338 -0.099130735
0.17756715 -0.09713328 -0.08809626 0.024440436 -0.079673775 -0.12531722 0.051403597 0.043009132
-0.03567535 0.21463443 -0.004196002 -0.035078377 0.08483885 0.04271758 0.14359623 -0.21718548
-0.045683008 0.038576927 0.09174746 0.1507949 -0.03923921 0.13553199 0.06227072 0.17137377
-0.08022993 0.0876811 0.0582995 0.12118105 0.08251627 -0.11429702 -0.015137244 -0.0928553
0.016514095 0.0064175357 -0.004051307 -0.19615261 0.03620399 -0.124543004 0.16406408 -0.025214167
-0.13572527 -0.13398431 -0.114374414 -0.09347662 0.031807564 0.018938353 0.14098632 0.18071122
0.124451 -0.014831524 -0.1555939 -0.012345369 0.1249746 -0.053134356 -0.13487759 -0.030378027
-0.022488069 0.059480157 -0.010176923 0.17004904 -0.08722032 0.14990501 -0.14704233 -0.0379714
-0.1524764 -0.014777248 -0.0889055 -0.14289832 0.13593288 -0.0052416595 -0.05601387 0.1261057
0.14280629 -0.0033544854 0.16767195 0.0183616 0.076571725 -0.18999195 -0.029072834 0.19159448
-0.034844507 -0.03807744 -0.1265052 0.039292738 0.084705405 0.06411861 -0.0020767837 0.20516258
0.103695914 0.21216744 -0.03879297 -0.06773174 -0.12088584 0.16150512 0.110877804 0.1120409
-0.14180607 -0.021136498 -0.14814685 0.17425857 0.18638112 0.19667287 0.13072592 -0.09479937
-0.14947273 0.12357196 0.123038545 0.002735028 -0.10212297 -0.1254954 -0.07043926 -0.07333605

layers.0.bias f4 [64]
00000000: 3a17 893d 54c0 0f3d 575b 84bb 9013 47be
00000010: 3a4d 143e 01d0 1abe cfca ddbd bce8 80bc
00000020: 831a 283e 9f2e 01bd 2946 953d e34d 0abe
00000030: efd8 753d 37e1 86bd 3b85 e83c b8aa 273e
00000040: 95d5 4cbe 2c42 023d 8513 00bd dd88 1f3e
00000050: ccb3 5d3d cb63 b2bd 219c 873d 09ac d33d
00000060: 1b6d c0bd 0717 083e a0e5 533e 2e5d 4a3e
00000070: 2f4c 5d3d b61a 233e 0515 c43d 6795 8fba
00000080: 395e 7abd 2c2a a3bd 801f 44bc c545 e4bd
00000090: 2995 423d ac6a 933d 9cf9 28bd f661 3a3e
000000a0: 1f7d 07bd a0b8 b83d 63d1 003e 3675 b33d
000000b0: e60e 90bd dc20 5c3e de94 593e dcf5 023e
000000c0: a2ac c43d 8d5d f0bc 5bb6 d1bd 3e0b cfbd
000000d0: e356 3dbd 2d72 7abc 599c 2f3d d7fd d23c
000000e0: 50a3 3e3e 394d 363e de69 3b3e f68d 193e
000000f0: 568c 533e 8057 eabd f640 0c3d 2a87 f3bd
0.06693883 0.035095528 -0.004039209 -0.19441056 0.14482585 -0.1511841 -0.10829698 -0.015735976
0.16416363 -0.031538602 0.072887726 -0.13506274 0.060021337 -0.06585925 0.028383842 0.16373718
-0.2000335 0.031801388 -0.031268615 0.15579553 0.054126546 -0.0871044 0.06621576 0.103355475
-0.0939581 0.13290034 0.20693064 0.19762108 0.054027732 0.15928158 0.09574322 -0.001095456
-0.061125014 -0.07967028 -0.011970401 -0.1114612 0.04750553 0.071980804 -0.04125367 0.18201432
-0.03307831 0.090195894 0.12579875 0.087625906 -0.07034092 0.2149691 0.21248195 0.127891
0.096032396 -0.029341483 -0.1023986 -0.10109566 -0.04622544 -0.015286011 0.042873714 0.025755806
0.18616986 0.17802896 0.18302104 0.1499556 0.20659003 -0.114424706 0.03424164 -0.11891015

layers.2.weight f4 [2, 64]
00000000: ceb3 b7bc 3ff8 42bd 90f4 1b3e 16e7 0b3d
00000010: 4741 b2bb d578 53bd 2afc 95bd af02 26be
00000020: af48 b13d 31c9 ac3d fcc4 21be 1886 c9bd
00000030: 22de ab3d 3523 c8bd a467 003e 65e2 18be
00000040: e2b2 473d 22b9 aa3d bef6 da3d ffdb efbc
00000050: 98eb b3bd 51bc f53d 828d c6bd c654 72bd
00000060: 2637 e6bd b7be 61bd 665f 143e 15fe 24be
00000070: 7dcd 313d 8aa4 21bd b95a 183e 2888 94bd
00000080: b0c9 193e f85a da3d 9ab8 143e fc40 24bd
00000090: ddee 47bd fcd7 afbd 192c 403d 58ce ea3d
000000a0: 91e6 0c3e 8c55 25bd 7692 87bd 6f4f 8cbd
000000b0: 3349 a2bd eacd 11be 70b2 a93c 5851 f5bd
000000c0: 89f1 aa3d 4c68 d2bd fc73 193e f898 1e3e
000000d0: fa5a 0ebd b2fd 893d 5820 4dbb 9397 b8bd
000000e0: 4c9b 433d 6c04 f13d 775a 853d c36d 173e
000000f0: 99d7 b63d 8a0b 283d a7f6 543d 7bd1 44bd
00000100: 3b37 873d 7b15 1d3e 9fbd a43c 703e 213d
00000110: ee2d 73bb b3de de3c ba5f 493d 27c1 143e
00000120: 7243 d53d dd79 2dbe 0646 f7bc b520 2c3d
00000130: c362 cabd cd1a f43d 0834 f23c f615 4dbc
00000140: 124c b93d 6d5d 14be 3c1d b0bc 0ca6 0fbe
00000150: e2e7 ebbd 67bd 14be 3e56 9a3b e1eb b73d
00000160: a9dd 163e c9e4 24be 2f8b 19bd a143 ffbc
00000170: 76cb 133e 9092 9d3c 576d 393b e04a 9a3d
00000180: ae0a 21be f8f0 a73d 67b4 d5bd c241 593d
00000190: e428 8a3d c00f 86bd a22a 0b3d 8cb4 f4bd
000001a0: 62a3 c2bd 61a7 aa3d 4c0a 083d 111d b1bc
000001b0: e586 e9bb a62d 6c3d 4a14 9dbd afcc 0e3e
000001c0: 0de9 9abd 1ad1 123d 8b0f 75bb 58e1 b8bd
000001d0: ee77 163e 6dd1 a93d d6a9 c93c 3222 883d
000001e0: f2af acbd ab0d 0dbe a52e 07bd d375 01be
000001f0: 6cde aebc 8e59 a0bd 9323 f9bd 6b80 e7bd
-0.022424605 -0.047600027 0.15230012 0.034155928 -0.0054399106 -0.051628906 -0.07323487 -0.16211961
0.086564414 0.08436812 -0.157978 -0.098400295 0.08391978 -0.0977234 0.12539536 -0.14930113
0.04875458 0.083360925 0.106915936 -0.029279707 -0.0878517 0.11998809 -0.09694959 -0.059162878
-0.112409875 -0.05511352 0.14489517 -0.1611255 0.04340886 -0.039463557 0.14878358 -0.07252532
0.15018344 0.10661882 0.14523545 -0.040101036 -0.048811782 -0.085861176 0.046917055 0.11465138
0.13759829 -0.040364787 -0.06619732 -0.06851088 -0.07924118 -0.14238706 0.020714968 -0.11978406
0.083468504 -0.10273799 0.14985651 0.1548804 -0.03475473 0.06737842 -0.0031299796 -0.090132855
0.047755525 0.117684215 0.065113954 0.14787965 0.08927841 0.04102663 0.05199304 -0.04805134
0.06602331 0.15340225 0.02010995 0.039366186 -0.0037106234 0.0272058 0.049163558 0.14526807
0.10413255 -0.16941018 -0.030184757 0.04202338 -0.098821186 0.11919174 0.029565826 -0.012517443
0.090477124 -0.14488764 -0.021498315 -0.14028186 -0.115188375 -0.14525376 0.004709988 0.08980537
0.14732994 -0.161029 -0.03748625 -0.031160178 0.14433083 0.019234926 0.0028293931 0.075338125
-0.1572673 0.08200258 -0.104348 0.053041227 0.067460805 -0.06545973 0.033976205 -0.11948499
-0.09503819 0.08332706 0.033212945 -0.021620305 -0.0071266764 0.05766072 -0.076698855 0.13945268
-0.07563982 0.035843946 -0.0037393298 -0.09027356 0.14694187 0.08291898 0.024617117 0.06647147
-0.084319964 -0.13774745 -0.033003468 -0.12642603 -0.021346293 -0.07829581 -0.12164988 -0.11303791

layers.2.bias f4 [2]
00000000: f898 e53d 769c 9abd
0.11210817 -0.07549374
